…
=0.0001, d_lr=0.0001, data_dir='data/processed', g_lr=0.0001, lambda_cls=1, lambda_cycle=10, lambda_identity=10, log_dir='starganvc/logs', log_step=10, lr_update_step=1000, mode='train', model_save_dir='starganvc/models', model_save_step=10000, n_critic=5, num_iters=200000, num_iters_decay=100000, num_workers=2, result_dir='starganvc/results', resume_iters=None, sample_dir='starganvc/samples', sample_step=2000, src_speaker=None, test_dir='data/speakers_test', test_iters=200000, trg_speaker="['SF1', 'TM1']", use_tensorboard=True)
Generator(
  (downsample): Sequential(
    (0): Down2d(
      (c1): Conv2d(1, 32, kernel_size=(3, 9), stride=(1, 1), padding=(1, 4))
      (n1): InstanceNorm2d(32, eps=1e-05, momentum=0.1, affine=False, track_running_stats=False)
      (c2): Conv2d(1, 32, kernel_size=(3, 9), stride=(1, 1), padding=(1, 4))
      (n2): InstanceNorm2d(32, eps=1e-05, momentum=0.1, affine=False, track_running_stats=False)
    )
    (1): Down2d(
      (c1): Conv2d(32, 64, kernel_size=(4, 8), stride=(2, 2), padding=(1, 3))
      (n1): InstanceNorm2d(64, eps=1e-05, momentum=0.1, affine=False, track_running_stats=False)
      (c2): Conv2d(32, 64, kernel_size=(4, 8), stride=(2, 2), padding=(1, 3))
      (n2): InstanceNorm2d(64, eps=1e-05, momentum=0.1, affine=False, track_running_stats=False)
    )
    (2): Down2d(
      (c1): Conv2d(64, 128, kernel_size=(4, 8), stride=(2, 2), padding=(1, 3))
      (n1): InstanceNorm2d(128, eps=1e-05, momentum=0.1, affine=False, track_running_stats=False)
      (c2): Conv2d(64, 128, kernel_size=(4, 8), stride=(2, 2), padding=(1, 3))
      (n2): InstanceNorm2d(128, eps=1e-05, momentum=0.1, affine=False, track_running_stats=False)
    )
    (3): Down2d(
      (c1): Conv2d(128, 64, kernel_size=(3, 5), stride=(1, 1), padding=(1, 2))
      (n1): InstanceNorm2d(64, eps=1e-05, momentum=0.1, affine=False, track_running_stats=False)
      (c2): Conv2d(128, 64, kernel_size=(3, 5), stride=(1, 1), padding=(1, 2))
      (n2): InstanceNorm2d(64, eps=1e-05, momentum=0.1, affine=False, track_running_stats=False)
    )
    (4): Down2d(
      (c1): Conv2d(64, 5, kernel_size=(9, 5), stride=(9, 1), padding=(1, 2))
      (n1): InstanceNorm2d(5, eps=1e-05, momentum=0.1, affine=False, track_running_stats=False)
      (c2): Conv2d(64, 5, kernel_size=(9, 5), stride=(9, 1), padding=(1, 2))
      (n2): InstanceNorm2d(5, eps=1e-05, momentum=0.1, affine=False, track_running_stats=False)
    )
  )
  (up1): Up2d(
    (c1): ConvTranspose2d(9, 64, kernel_size=(9, 5), stride=(9, 1), padding=(0, 2))
    (n1): InstanceNorm2d(64, eps=1e-05, momentum=0.1, affine=False, track_running_stats=False)
    (c2): ConvTranspose2d(9, 64, kernel_size=(9, 5), stride=(9, 1), padding=(0, 2))
    (n2): InstanceNorm2d(64, eps=1e-05, momentum=0.1, affine=False, track_running_stats=False)
  )
  (up2): Up2d(
    (c1): ConvTranspose2d(68, 128, kernel_size=(3, 5), stride=(1, 1), padding=(1, 2))
    (n1): InstanceNorm2d(128, eps=1e-05, momentum=0.1, affine=False, track_running_stats=False)
    (c2): ConvTranspose2d(68, 128, kernel_size=(3, 5), stride=(1, 1), padding=(1, 2))
    (n2): InstanceNorm2d(128, eps=1e-05, momentum=0.1, affine=False, track_running_stats=False)
  )
  (up3): Up2d(
    (c1): ConvTranspose2d(132, 64, kernel_size=(4, 8), stride=(2, 2), padding=(1, 3))
    (n1): InstanceNorm2d(64, eps=1e-05, momentum=0.1, affine=False, track_running_stats=False)
    (c2): ConvTranspose2d(132, 64, kernel_size=(4, 8), stride=(2, 2), padding=(1, 3))
    (n2): InstanceNorm2d(64, eps=1e-05, momentum=0.1, affine=False, track_running_stats=False)
  )
  (up4): Up2d(
    (c1): ConvTranspose2d(68, 32, kernel_size=(4, 8), stride=(2, 2), padding=(1, 3))
    (n1): InstanceNorm2d(32, eps=1e-05, momentum=0.1, affine=False, track_running_stats=False)
    (c2): ConvTranspose2d(68, 32, kernel_size=(4, 8), stride=(2, 2), padding=(1, 3))
    (n2): InstanceNorm2d(32, eps=1e-05, momentum=0.1, affine=False, track_running_stats=False)
  )
  (deconv): ConvTranspose2d(36, 1, kernel_size=(3, 9), stride=(1, 1), padding=(1, 4))
)
G
The number of parameters: 1926679
Discriminator(
  (d1): Down2d(
    (c1): Conv2d(5, 32, kernel_size=(3, 9), stride=(1, 1), padding=(1, 4))
    (n1): InstanceNorm2d(32, eps=1e-05, momentum=0.1, affine=False, track_running_stats=False)
    (c2): Conv2d(5, 32, kernel_size=(3, 9), stride=(1, 1), padding=(1, 4))
    (n2): InstanceNorm2d(32, eps=1e-05, momentum=0.1, affine=False, track_running_stats=False)
  )
  (d2): Down2d(
    (c1): Conv2d(36, 32, kernel_size=(3, 8), stride=(1, 2), padding=(1, 3))
    (n1): InstanceNorm2d(32, eps=1e-05, momentum=0.1, affine=False, track_running_stats=False)
    (c2): Conv2d(36, 32, kernel_size=(3, 8), stride=(1, 2), padding=(1, 3))
    (n2): InstanceNorm2d(32, eps=1e-05, momentum=0.1, affine=False, track_running_stats=False)
  )
  (d3): Down2d(
    (c1): Conv2d(36, 32, kernel_size=(3, 8), stride=(1, 2), padding=(1, 3))
    (n1): InstanceNorm2d(32, eps=1e-05, momentum=0.1, affine=False, track_running_stats=False)
    (c2): Conv2d(36, 32, kernel_size=(3, 8), stride=(1, 2), padding=(1, 3))
    (n2): InstanceNorm2d(32, eps=1e-05, momentum=0.1, affine=False, track_running_stats=False)
  )
  (d4): Down2d(
    (c1): Conv2d(36, 32, kernel_size=(3, 6), stride=(1, 2), padding=(1, 2))
    (n1): InstanceNorm2d(32, eps=1e-05, momentum=0.1, affine=False, track_running_stats=False)
    (c2): Conv2d(36, 32, kernel_size=(3, 6), stride=(1, 2), padding=(1, 2))
    (n2): InstanceNorm2d(32, eps=1e-05, momentum=0.1, affine=False, track_running_stats=False)
  )
  (conv): Conv2d(36, 1, kernel_size=(36, 5), stride=(36, 1), padding=(0, 2))
  (pool): AvgPool2d(kernel_size=(1, 64), stride=(1, 64), padding=0)
)
D
The number of parameters: 167441
DomainClassifier(
  (main): Sequential(
    (0): Down2d(
      (c1): Conv2d(1, 8, kernel_size=(4, 4), stride=(2, 2), padding=(5, 1))
      (n1): InstanceNorm2d(8, eps=1e-05, momentum=0.1, affine=False, track_running_stats=False)
      (c2): Conv2d(1, 8, kernel_size=(4, 4), stride=(2, 2), padding=(5, 1))
      (n2): InstanceNorm2d(8, eps=1e-05, momentum=0.1, affine=False, track_running_stats=False)
    )
    (1): Down2d(
      (c1): Conv2d(8, 16, kernel_size=(4, 4), stride=(2, 2), padding=(1, 1))
      (n1): InstanceNorm2d(16, eps=1e-05, momentum=0.1, affine=False, track_running_stats=False)
      (c2): Conv2d(8, 16, kernel_size=(4, 4), stride=(2, 2), padding=(1, 1))
      (n2): InstanceNorm2d(16, eps=1e-05, momentum=0.1, affine=False, track_running_stats=False)
    )
    (2): Down2d(
      (c1): Conv2d(16, 32, kernel_size=(4, 4), stride=(2, 2), padding=(0, 1))
      (n1): InstanceNorm2d(32, eps=1e-05, momentum=0.1, affine=False, track_running_stats=False)
      (c2): Conv2d(16, 32, kernel_size=(4, 4), stride=(2, 2), padding=(0, 1))
      (n2): InstanceNorm2d(32, eps=1e-05, momentum=0.1, affine=False, track_running_stats=False)
    )
    (3): Down2d(
      (c1): Conv2d(32, 16, kernel_size=(3, 4), stride=(1, 2), padding=(1, 1))
      (n1): InstanceNorm2d(16, eps=1e-05, momentum=0.1, affine=False, track_running_stats=False)
      (c2): Conv2d(32, 16, kernel_size=(3, 4), stride=(1, 2), padding=(1, 1))
      (n2): InstanceNorm2d(16, eps=1e-05, momentum=0.1, affine=False, track_running_stats=False)
    )
    (4): Conv2d(16, 4, kernel_size=(1, 4), stride=(1, 2), padding=(0, 1))
    (5): AvgPool2d(kernel_size=(1, 16), stride=(1, 16), padding=0)
  )
)
C
The number of parameters: 33428
Start training......
Elapsed [0:00:08], Iteration [10/200000], D/loss_real: -0.6698, D/loss_fake: 0.3150, D/loss_cls: 0.6982, G/loss_fake: -0.2933, G/loss_rec: 1.4640, G/loss_cls: 0.6982, G/loss_id: 1.5162
Elapsed [0:00:14], Iteration [20/200000], D/loss_real: -0.8700, D/loss_fake: 0.2965, D/loss_cls: 0.7074, G/loss_fake: -0.2703, G/loss_rec: 1.2924, G/loss_cls: 0.7074, G/loss_id: 1.3385
…
